Results from running the following model with different dropout rates:

_________________________________________________________________
Layer (type)                 Output Shape              Param #   
=================================================================
conv2d_27 (Conv2D)           (None, 74, 74, 16)        800       
_________________________________________________________________
activation_45 (Activation)   (None, 74, 74, 16)        0         
_________________________________________________________________
max_pooling2d_18 (MaxPooling (None, 37, 37, 16)        0         
_________________________________________________________________
conv2d_28 (Conv2D)           (None, 17, 17, 32)        12832     
_________________________________________________________________
activation_46 (Activation)   (None, 17, 17, 32)        0         
_________________________________________________________________
conv2d_29 (Conv2D)           (None, 15, 15, 32)        9248      
_________________________________________________________________
activation_47 (Activation)   (None, 15, 15, 32)        0         
_________________________________________________________________
max_pooling2d_19 (MaxPooling (None, 7, 7, 32)          0         
_________________________________________________________________
dropout_18 (Dropout)         (None, 7, 7, 32)          0         
_________________________________________________________________
flatten_9 (Flatten)          (None, 1568)              0         
_________________________________________________________________
dense_18 (Dense)             (None, 32)                50208     
_________________________________________________________________
activation_48 (Activation)   (None, 32)                0         
_________________________________________________________________
dropout_19 (Dropout)         (None, 32)                0         
_________________________________________________________________
dense_19 (Dense)             (None, 26)                858       
_________________________________________________________________
activation_49 (Activation)   (None, 26)                0         
=================================================================
Total params: 73,946
Trainable params: 73,946
Non-trainable params: 0
_________________________________________________________________

Note : Trained on 49184 samples, validated on 8930 samples

_________________________________________________________________

Epoch 1/2
49184/49184 [==============================] - 173s 4ms/sample - loss: 1.4441 - acc: 0.5371 - val_loss: 4.3889 - val_acc: 0.2935
…
